models/signal_classifier.tflite (tflite, 13880 bytes, 6 tensors)

sequential/dense_1/BiasAdd/ReadVariableOp f4 [32]
0	0x3cb7009a	0.022339154
1	0xbb863a40	-0.0040962994
2	0x3d0a772e	0.033805065
3	0xbd1abf37	-0.037780013
4	0x3c91a4f4	0.017778851
5	0x3c8862b4	0.016648628
6	0x3c6cb2fe	0.014446972
7	0xba07d049	-0.0005180878
8	0xbba009de	-0.0048839888
9	0x3b36bd14	0.0027883695
10	0x3ce3f361	0.027826013
11	0xbcebddfb	-0.028792372
12	0xbccf343e	-0.025293466
13	0x3b1b68cd	0.002371359
14	0x3cb25c39	0.02177249
15	0xbcad0a03	-0.021122938
16	0x3c883cd9	0.016630577
17	0x3d5d585b	0.05403934
18	0xbba8e783	-0.0051545515
19	0xbce13344	-0.027490266
20	0xba8987a6	-0.0010492697
21	0x3cf43a38	0.029812917
22	0x3cb18918	0.021671817
23	0x3c12c6b9	0.008958512
24	0xbb9d2091	-0.004795142
25	0x3a8f4fe0	0.0010933839
26	0x3cadf4fd	0.021234984
27	0xbca2b44b	-0.019861361
28	0x3caa4ab0	0.020787567
29	0xbb5b6cf1	-0.0033481682
30	0xbad00853	-0.0015871621
31	0xbcee8476	-0.029115897

sequential/dense_2/BiasAdd/ReadVariableOp f4 [5]
0	0x3c443062	0.011974426
1	0xbc3fb4bf	-0.011700808
2	0x3cbc4527	0.022982193
3	0x3c6015b6	0.013677051
4	0xbd3be61b	-0.045873743

sequential/dense/BiasAdd/ReadVariableOp f4 [64]
0	0x3cbf91df	0.023384986
1	0x3ce40c77	0.027837975
2	0x39f2bfd2	0.00046300754
3	0x3d049320	0.03236687
4	0x3916dcbc	0.00014387345
5	0xbc9737bb	-0.018459192
6	0xbc733375	-0.014843811
7	0x00000000	0.0
8	0x3d0ea55e	0.034825675
9	0xbc2fcd03	-0.010730031
10	0x3c3a3275	0.011364569
11	0x3ba25dd7	0.0049550342
12	0x3ce17884	0.027523287
13	0xbcbf063d	-0.023318404
14	0xbc19356d	-0.009351117
15	0x3c64759d	0.013944057
16	0x3b67b60e	0.0035356316
17	0x3b0b7a46	0.0021282597
18	0x3d3f023f	0.046633
19	0xbcf60a0b	-0.030034086
20	0xbc301fee	-0.0107498
21	0x3b1b71cc	0.0023718951
22	0xbc1180b3	-0.008880782
23	0xbc3be83e	-0.011468945
24	0x3cca48a0	0.024692833
25	0x3d3ffaea	0.04687015
26	0xbc190f4b	-0.009342025
27	0x3ca7a4cc	0.020464323
28	0x3b81b599	0.0039584157
29	0xbc18f49e	-0.009335665
30	0x3cf4fa86	0.029904615
31	0xbc17ceaa	-0.009265581
32	0x3bb68d0b	0.005571013
33	0x3cbc4471	0.022981854
34	0xbc77370d	-0.015088809
35	0xbc39358f	-0.011304273
36	0xbc773ddc	-0.015090432
37	0xbc5f6fb3	-0.013637471
38	0xbca0c1ec	-0.01962372
39	0xba31cdbe	-0.0006782672
40	0x3c7a86bc	0.015290912
41	0x3ce29212	0.027657542
42	0x00000000	0.0
43	0xbc744c07	-0.014910704
44	0xbc48feb7	-0.01226776
45	0xbd142929	-0.036172066
46	0x3d2b22bd	0.041781176
47	0xbc6cebb4	-0.014460493
48	0x00000000	0.0
49	0x3ab4e547	0.001380124
50	0x3cdd23b1	0.026994558
51	0x3ba2858f	0.004959769
52	0xbc068bdd	-0.008212057
53	0x3bf4e166	0.0074731587
54	0x3c2bbe86	0.010482436
55	0xbc3c7591	-0.011502639
56	0x3d02c3dd	0.03192507
57	0xbb361f6a	-0.002778972
58	0x3c3d0e16	0.011539003
59	0xba4587c6	-0.00075351854
60	0x3ade5fed	0.0016965844
61	0xbc5811e6	-0.013187861
62	0xbcb13f18	-0.02163653
63	0x3d2025d8	0.03909859

sequential/dense/MatMul f4 [64, 10]
0	0x3a0c499c	0.0005351545
1	0x3de8ab7e	0.113608345
2	0x3e601b27	0.21885358
3	0xbba32210	-0.004978426
4	0xbe690008	-0.22753918
5	0xbd8efc0f	-0.0698167
6	0x3dc808b5	0.09767286
7	0x3e8fc5e3	0.28080663
8	0x3e2e97f3	0.17050152
9	0xbe4a630e	-0.19764349
10	0x3dc087b2	0.09400882
11	0x3e807d62	0.2509566
12	0x3e4eebb3	0.202071
13	0xbd86059a	-0.06544037
14	0xbd175788	-0.03694871
15	0x3e0a4068	0.13501132
16	0x3e5aa3a9	0.21351494
17	0xbdbe348d	-0.09287367
18	0x3e52e51c	0.20595211
19	0xbbe75e7b	-0.0070608235
20	0xbe8a94a5	-0.27066532
21	0x3d658237	0.056032386
22	0x3e96522f	0.29359576
23	0x3e5fec19	0.21867408
24	0x3d5ba2ef	0.053622182
25	0x3d97d1ad	0.07413039
26	0x3e0f941b	0.14021342
27	0xbc29d577	-0.010365835
28	0xbe682862	-0.22671655
29	0xbe5bc5fa	-0.21462241
30	0x3cf48a41	0.02985108
31	0xbdf26cac	-0.11837134
32	0xbde56862	-0.1120155
33	0xbe1d19b1	-0.15341832
34	0x3e6d3b25	0.23167093
35	0xbddf738a	-0.10910709
36	0x3e731205	0.23737343
37	0x3e08c469	0.13356175
38	0xbe5b0f80	-0.21392632
39	0xbd27f07d	-0.041000832
40	0xbe697ee8	-0.22802317
41	0x3d293084	0.041306034
42	0x3daa1eda	0.08306666
43	0xbd8e7af0	-0.06957042
44	0x3db0855c	0.08619186
45	0xbe88ee6d	-0.26744404
46	0xbd46b078	-0.048508137
47	0xbe2d4ffa	-0.1692504
48	0x3e7cfe32	0.24706343
49	0xbd9b3e77	-0.075802736
50	0x3de9621d	0.11395667
51	0xbe02bf9f	-0.1276841
52	0x3e5130f0	0.20428824
53	0x3c197ce0	0.009368151
54	0x3e57b312	0.21064404
55	0xbe80cc51	-0.2515588
56	0x3dae1cec	0.0850161
57	0xbe4c22c7	-0.19935142
58	0x3e220d87	0.15825473
59	0x3eb4eb58	0.35335803
60	0x3e332d36	0.17497715
61	0xbe218720	-0.15774202
62	0x3c91f0f2	0.017815087
63	0xbe0db3ff	-0.13838194
64	0x3dc06d82	0.09395887
65	0x3e7e6c40	0.24845982
66	0xbde9af6b	-0.114104114
67	0x3b5bd7e2	0.0033545424
68	0x3e14c4d0	0.14528203
69	0x3e76ed61	0.2411399
70	0xbce279b0	-0.027645916
71	0xbd47330c	-0.048632666
72	0xbe723038	-0.23651206
73	0xbe88bde2	-0.2670737
74	0x3d4f6bf8	0.050640076
75	0x3deb4928	0.11488563
76	0xbe2dda5b	-0.16977827
77	0x3ace5f00	0.0015744865
78	0xbd8c2996	-0.068438694
79	0xbe780c45	-0.2422343
80	0x3e9fbfa8	0.3120091
81	0xbd8181c8	-0.06323582
82	0x3ea82c8a	0.3284648
83	0xbdb05b31	-0.086111434
84	0x3dcf45a9	0.101207085
85	0x3e2d64b5	0.16932948
86	0xbe37a9f1	-0.17935921
87	0x3c4c656e	0.012475355
88	0xbe66ea91	-0.22550417
89	0xbe179a42	-0.14804938
90	0x3e5b4479	0.21412839
91	0xbe5c19eb	-0.21494262
92	0xbdb88c28	-0.09011108
93	0xbe7fa28b	-0.24964349
94	0xbe23d468	-0.15998995
95	0x3e33043d	0.17482086
96	0xbd2e696d	-0.04258101
97	0x3dbcc97d	0.09218118
98	0x3e67cb21	0.22636081
99	0x3e43b3e7	0.19111596
100	0x3db7f43d	0.08982132
101	0x3e9b4f5a	0.30333978
102	0x3cc15677	0.0236008
103	0xbdfb89f0	-0.12282169
104	0xbe25e3d1	-0.16200186
105	0x3cc5e95d	0.024159128
106	0x3de57de0	0.112056494
107	0xbd247925	-0.040154595
108	0x3d8d9416	0.06913011
109	0xbebead26	-0.37241477
110	0x3e8340c5	0.25635353
111	0x3dbb4448	0.09143883
112	0x3d947650	0.07249129
113	0x3e613f47	0.21996795
114	0x3e27ff80	0.1640606
115	0xbe6effda	-0.23339787
116	0xbe2c9f7c	-0.16857713
117	0x3d3f87ba	0.0467603
118	0xbd977f77	-0.07397359
119	0xbda1a647	-0.07893043
120	0x3e9b9257	0.30385086
121	0x3d812b3c	0.063070744
122	0x3e0cc812	0.13748196
123	0xbe25937e	-0.16169545
124	0xbeab1008	-0.33410668
125	0xbe120562	-0.14259866
126	0xbe3e2a93	-0.18570928
127	0xbd596f3f	-0.05308461
128	0x3e3ea952	0.18619278
129	0x3cb8c17e	0.022553202
130	0x3d2110be	0.039322607
131	0xbdf04a43	-0.11732914
132	0xbe8bcd96	-0.27305287
133	0xbe5aa6af	-0.21352647
134	0xb834caa8	-4.3104083e-05
135	0xbe15b914	-0.14621383
136	0x3e13e7e9	0.14443935
137	0x3e31a7e3	0.173492
138	0x3daa421b	0.0831339
139	0x3d9f51d4	0.07779279
140	0xbdc9c641	-0.09852267
141	0xbd853992	-0.06505121
142	0x3e3b0367	0.18263017
143	0x3e3e2229	0.18567719
144	0x3e9a4837	0.3013322
145	0x3d7a6128	0.06112781
146	0xbe112b27	-0.14176618
147	0x3dafa68c	0.08576688
148	0xbe00b5ca	-0.12569347
149	0x3a219872	0.0006164379
150	0x3d61d60c	0.05513577
151	0xbd29f467	-0.041492846
152	0xbdfe6116	-0.124208614
153	0xbd2ed52f	-0.042683776
154	0x3e94a03c	0.290285
155	0xbdc91589	-0.09818561
156	0x3bd6056c	0.006531408
157	0xbe470ab5	-0.19437678
158	0xbe136457	-0.14393745
159	0x3d490d9e	0.049085252
160	0xbe3a1c8e	-0.18174955
161	0x3e829fe8	0.25512624
162	0xbd108e05	-0.03529169
163	0xbe51f743	-0.20504479
164	0xbea360f4	-0.31909907
165	0xbe87daf2	-0.2653423
166	0x3db49301	0.08817101
167	0x3e475f7b	0.19470017
168	0x3e7273a5	0.23676927
169	0x3d8cd1cc	0.06875953
170	0xbe0ab45b	-0.13545363
171	0xbd4eb0bd	-0.05046152
172	0xbdab8144	-0.08374265
173	0x3e7c4376	0.2463511
174	0x3e702f72	0.23455599
175	0x3e81850f	0.25296828
176	0x3e66ed8a	0.22551551
177	0xbded913b	-0.11599966
178	0xbea3dccc	-0.32004392
179	0x3e7855ff	0.24251555
180	0x3e972cd4	0.2952639
181	0x3e942495	0.2893416
182	0x3e11b7f9	0.14230336
183	0xbe54d70a	-0.20785156
184	0x3e8c4eaa	0.27403766
185	0x3e39964b	0.18123738
186	0xbe9413b5	-0.28921285
187	0xbe00f12f	-0.12592004
188	0x3df9c172	0.121951
189	0xbe818dff	-0.25303647
190	0x3e25d36d	0.16193934
191	0xbe0cadb5	-0.13738139
192	0xbdd2f346	-0.10300307
193	0xbe333024	-0.17498833
194	0x3e327c7d	0.17430301
195	0xbe83d457	-0.2574794
196	0x3c372b95	0.011179824
197	0xbdeb2fc9	-0.11483724
198	0xbd0a8e41	-0.03382707
199	0xbdc1d243	-0.09463932
200	0x3e19d5b5	0.15022929
201	0xbdd49ecc	-0.103818506
202	0xbe628de7	-0.22124444
203	0x3e4cd7c2	0.2000418
204	0xbd46a29b	-0.048494916
205	0x3e5c5e3d	0.21520324
206	0xbe97a64c	-0.29619062
207	0x3dfef738	0.12449497
208	0x3dfe8e84	0.124295264
209	0xbe604fcb	-0.21905439
210	0x3e640ed9	0.22271289
211	0x3e0ce3c1	0.13758756
212	0x3dd453cd	0.10367546
213	0xbe987d62	-0.2978316
214	0xbd42fa0b	-0.04760174
215	0x3d30c598	0.04315719
216	0x3d155267	0.036455538
217	0xbe085fc8	-0.13317788
218	0x3e36af77	0.17840372
219	0xbdb9ff34	-0.09081879
220	0xbe098360	-0.13429022
221	0x3c37a907	0.011209733
222	0xbe62b9fd	-0.22141261
223	0x3ea3dc65	0.32004085
224	0x3e8d678a	0.27618057
225	0xbe303235	-0.17206652
226	0x3e2f4214	0.1711505
227	0xbe5fe855	-0.21865971
228	0xbc05b996	-0.008161923
229	0xbdce994d	-0.100878336
230	0x3e1fc553	0.15602617
231	0x3b0fe2e2	0.00219553
232	0xbdfdee33	-0.123989485
233	0x3e2011f5	0.1563185
234	0xbdda4c66	-0.10659103
235	0x3d9b07e1	0.07569862
236	0xbe4b99e8	-0.1988293
237	0x3df65311	0.120275624
238	0x3c3206ba	0.010865862
239	0xbe3450b2	-0.17608908
240	0x3d38960c	0.04506497
241	0xbde152fc	-0.11002156
242	0xbe5e0fcc	-0.21685714
243	0xbda48aae	-0.080342636
244	0x3caf5c48	0.021406308
245	0x3da6c49d	0.0814297
246	0x3e1bb0ea	0.15204206
247	0x3e5d4a88	0.21610463
248	0x3c818ec4	0.015815146
249	0x3e053f31	0.13012387
250	0xbe1d9eab	-0.15392558
251	0xbe5b4d12	-0.21416119
252	0x3e223c24	0.15843254
253	0x3e05f06c	0.13079995
254	0x3da24728	0.07923728
255	0xbe510f1c	-0.2041592

sequential/dense_1/MatMul f4 [32, 64]
0	0x3e211840	0.15731907
1	0x3e6fcf4d	0.23418923
2	0xbe7bc938	-0.24588478
3	0xbe7811f0	-0.24225593
4	0xbdb8c2e0	-0.090215445
5	0xbda52412	-0.080635205
6	0x3e34373c	0.17599195
7	0xbd66cd50	-0.056348145
8	0xbcc100d4	-0.023559965
9	0x3e27dd3e	0.16392991
10	0xbe81f7f8	-0.25384498
11	0xbe0e7d58	-0.13915002
12	0x3e0c316d	0.1369073
13	0x3e6332b1	0.22187306
14	0xbe09abda	-0.13444462
15	0x3d097cbf	0.033566233
16	0xbe64b7b5	-0.22335704
17	0xbc2036cf	-0.009778692
18	0xbdd95be7	-0.10613232
19	0x3dd03da4	0.10168007
20	0x3e50ec9e	0.20402762
21	0x3e2fc8d1	0.17166449
22	0xbe39269b	-0.18081133
23	0x3ec70d79	0.38877466
24	0x3e1092a4	0.14118439
25	0xbe2e0e68	-0.16997683
26	0xbdf85321	-0.121252306
27	0xbe8db026	-0.27673453
28	0xbdc33a91	-0.09532655
29	0xbe5b1eb9	-0.21398439
30	0x3dd2fe41	0.10302401
31	0xbe24615e	-0.16052768
32	0xbe0c9ecd	-0.13732453
33	0xbd97777f	-0.07395839
34	0x3e4900bf	0.19629191
35	0xbc1dfc14	-0.00964262
36	0x3d415767	0.047202494
37	0xbdb36b39	-0.087606855
38	0xbe62d360	-0.22150946
39	0x3e6f16e5	0.23348577
40	0x3e945ab2	0.28975445
41	0xbd19b89e	-0.03752958
42	0xbd0101e0	-0.03149593
43	0x3e696f38	0.22796333
44	0x3d074c97	0.033032026
45	0x3ea575ec	0.3231653
46	0x3dfef20f	0.12448513
47	0x3dd9b5da	0.106303886
48	0x3dff8870	0.12477195
49	0xbdf3ce66	-0.11904602
50	0xbd831850	-0.064011216
51	0x3e5d844f	0.21632503
52	0x3e5bd404	0.21467596
53	0x3c1ff8c0	0.009763896
54	0x3d8154f9	0.063150354
55	0xbe570657	-0.20998512
56	0xbe334f6f	-0.1751077
57	0xbe4c6b96	-0.19962916
58	0x3e47ecb6	0.19523892
59	0x3e2c1ce3	0.16807894
60	0x3cc8ab50	0.02449575
61	0xbce42054	-0.027847447
62	0x3e63c0cd	0.22241516
63	0xbe952eff	-0.29137418
64	0xbe13c594	-0.14430839
65	0xbdcb6b36	-0.09932558
66	0x3e7496de	0.23885676
67	0xbc012fcb	-0.00788493
68	0x3dd29df4	0.102840334
69	0xbe203fcf	-0.15649341
70	0x3e1b2cfa	0.15153876
71	0x3d7a5730	0.061118305
72	0x3e85ff7c	0.26171482
73	0x3e000351	0.12501265
74	0xbe8802e7	-0.26564714
75	0x3e5733f9	0.2101592
76	0xbea53672	-0.322681
77	0x3e51523e	0.20441529
78	0x3e35b99f	0.1774659
79	0x3d69021c	0.056886777
80	0xbe2d0846	-0.16897687
81	0xbd8c0e08	-0.06838614
82	0x3e6c60ac	0.23083752
83	0xbe3d5e37	-0.18492971
84	0x3e9dd0bb	0.3082331
85	0xbc9c4151	-0.019074114
86	0xbdc58db8	-0.09646171
87	0x3e6968ed	0.22793932
88	0xbe99b7e6	-0.30023116
89	0x3e83e827	0.25763056
90	0xbd37549f	-0.044758435
91	0xbe1ac2dd	-0.15113397
92	0x3d95f335	0.07321779
93	0xbe1d08c2	-0.15335372
94	0xbe75ed2b	-0.24016254
95	0x3dc33bd7	0.09532898
96	0xbdec3201	-0.11532975
97	0xbe164da7	-0.1467806
98	0xbdd30b6c	-0.10304913
99	0xbea2c898	-0.31793666
100	0x3c21149b	0.009831573
101	0x3e685ed3	0.22692423
102	0x3e1304d2	0.14357308
103	0x3d8ac92b	0.06776651
104	0x3b9ef3a7	0.004850823
105	0xbe81588a	-0.25262862
106	0xbbb81680	-0.0056179166
107	0xbe3e259f	-0.18569039
108	0x3e34a9b2	0.17642859
109	0xbe10465e	-0.14089343
110	0xbcebf643	-0.02880395
111	0x3ce04dbf	0.027380822
112	0x3dc47d68	0.09594232
113	0xbdba0861	-0.090836294
114	0xbdcca601	-0.099926
115	0x3ddda46c	0.108223766
116	0xbdcbe133	-0.09955063
117	0x3e15ff9a	0.14648286
118	0x3cbffa39	0.023434745
119	0x3d4c15eb	0.04982559
120	0x3e4615c0	0.19344234
121	0x3e0aff5a	0.13573971
122	0xbddaa3ea	-0.106757954
123	0x3e403502	0.18770221
124	0xbe5b589f	-0.21420525
125	0xbe1e5471	-0.154619
126	0xbe85c8af	-0.26129672
127	0x3e29dc21	0.16587879
128	0x3e0b0519	0.13576163
129	0x3d84155f	0.06449389
130	0x3e85cb5a	0.26131707
131	0x3e813774	0.2523762
132	0xbe92b0df	-0.28650567
133	0xbd9ea161	-0.07745624
134	0x3d7c5cc6	0.061611913
135	0x3d9f9da0	0.077937365
136	0x3da374f3	0.07981291
137	0xbd88ac30	-0.06673467
138	0x3e914fee	0.28381294
139	0xbe8a1e07	-0.26976034
140	0xbdac0abf	-0.08400487
141	0xbe53417e	-0.20630452
142	0x3e3f801d	0.18701215
143	0xbd9008e1	-0.070329435
144	0xbed86ea9	-0.42271927
145	0x3e9de85f	0.30841348
146	0x3d9c6c92	0.07637896
147	0x3e426593	0.1898406
148	0xbd86572e	-0.06559597
149	0xbd2becfa	-0.041974045
150	0x3d9522a1	0.072819956
151	0x3e2feea6	0.17180881
152	0x3d9447c8	0.07240254
153	0xbe2989b7	-0.1655644
154	0x3dae5d09	0.08513839
155	0x3df1dc00	0.1180954
156	0xbaa5bb52	-0.0012644327
157	0xbdc32591	-0.095286496
158	0x3e8008d6	0.2500674
159	0xbe2861c6	-0.16443548
160	0x3e03bf67	0.12865983
161	0x3dc84cef	0.09780299
162	0x3e0a107f	0.13482855
163	0x3c3ab88a	0.011396537
164	0xbe765774	-0.24056798
165	0xbdc0baf0	-0.094106555
166	0x3dc30f8a	0.09524448
167	0xbd308611	-0.043096606
168	0x3e2cd741	0.16878988
169	0xbe4c991c	-0.19980282
170	0xbde3cd00	-0.11123085
171	0xbe0334a6	-0.12813053
172	0xbe38920e	-0.18024465
173	0xbde4ee65	-0.11178283
174	0x3e5f0e02	0.21782687
175	0xbda6d21b	-0.08145543
176	0x3e0f6308	0.14002621
177	0x3de33897	0.11094778
178	0x3e87ae8c	0.26500356
179	0x3d0338ec	0.032036707
180	0xbea1a76d	-0.31573048
181	0xbe1e0cc2	-0.15434554
182	0xbe461eab	-0.19347636
183	0xbdc07f5d	-0.093992926
184	0x3c9b8f0a	0.018989105
185	0x3c2ed8df	0.010671823
186	0x3e494099	0.19653548
187	0xbbb58ec1	-0.005540699
188	0xbdd417e2	-0.10356118
189	0x3e2cad47	0.16862975
190	0xbc14ca28	-0.009081401
191	0x3d25ced1	0.04048044
192	0x3ca4c3e2	0.020112935
193	0x3dd57a64	0.10423735
194	0x3e0b69ac	0.1361453
195	0x3ea16d7d	0.31528845
196	0xbe1e0e8c	-0.15435237
197	0xbe3981c4	-0.18115908
198	0xbdf7f288	-0.12106806
199	0x3db923d8	0.0904004
200	0x3e648d82	0.22319606
201	0xbd887941	-0.06663752
202	0x3e6973f2	0.22798136
203	0x3db1fd49	0.086908884
204	0x3e21e669	0.15810551
205	0xbe1f8e64	-0.15581661
206	0x3d911b3d	0.070852734
207	0x3cd619ac	0.026135288
208	0xbe1df882	-0.1542683
209	0xbbaa0cea	-0.0051895278
210	0xbe207b47	-0.15672027
211	0x3d1262a7	0.035738613
212	0xbdf7bd58	-0.12096661
213	0xbd38dd63	-0.045133006
214	0xbe1934d3	-0.14961557
215	0x3e43b688	0.19112599
216	0x3e09f302	0.13471606
217	0xbe8318e0	-0.25604916
218	0x3d4f34fb	0.050587635
219	0xbca8019b	-0.020508578
220	0xbe4ebe14	-0.20189697
221	0xbe20a5f3	-0.15688305
222	0x3e1670b1	0.14691426
223	0xbe89f7aa	-0.26946765
224	0xbe1e5c10	-0.15464807
225	0x3d9bd64e	0.07609235
226	0xbe37db1f	-0.17954682
227	0xbc676ba5	-0.014124786
228	0x3d929930	0.071581244
229	0xbde16ab2	-0.11006679
230	0xbde77d44	-0.113031894
231	0xbc3ce300	-0.01152873
232	0xbd7f12c7	-0.062273767
233	0x3d923464	0.07138899
234	0x3b7f6b00	0.003897369
235	0xbe6f7b02	-0.23386768
236	0xbb0cc4ec	-0.002147968
237	0x3cb7f1e0	0.022454202
238	0xbdf608c7	-0.12013393
239	0x3e720642	0.236352
240	0x3e507bac	0.20359677
241	0x3e763afc	0.24045938
242	0xbd6df381	-0.05809355
243	0xbe3d3095	-0.18475564
244	0x3df70ae7	0.12062626
245	0x3d8e62f7	0.0695247
246	0x3d6e8a75	0.05823751
247	0x3cc9b95f	0.024624525
248	0xbdbf9561	-0.09354664
249	0xbcfd05ad	-0.030886495
250	0xbe314af7	-0.17313753
251	0x3d0b3d8f	0.033994254
252	0x3e42c0e4	0.19018894
253	0xbda52628	-0.08063918
254	0xbe4668ce	-0.19375917
255	0x3b22cb4c	0.0024840413

sequential/dense_2/MatMul f4 [5, 32]
0	0x3d849fb1	0.06475771
1	0xbeb65bab	-0.35616812
2	0x3e4b605b	0.19860975
3	0x3ecee8e9	0.4041207
4	0x3db165dc	0.08662006
5	0xbd6c943b	-0.05775855
6	0xbf075e86	-0.52878606
7	0x3ebbc39f	0.36672685
8	0xbea54ff4	-0.32287562
9	0x3e277bc7	0.16355811
10	0xbdc2eaa9	-0.09517414
11	0x3d3c0dcf	0.045911606
12	0xbc3bc431	-0.01146035
13	0xbe811274	-0.2520939
14	0xbd0b80a1	-0.034058217
15	0xbe13a2a9	-0.14417519
16	0xbed7f94f	-0.42182395
17	0xbe16a8c6	-0.1471282
18	0x3e1532fc	0.1457023
19	0x3e84370b	0.25823244
20	0x3e4c6f82	0.19964412
21	0xbef0e362	-0.4704848
22	0xbee2749b	-0.44229588
23	0x3eaae58a	0.3337825
24	0xbe8656b8	-0.26238036
25	0xbeb80949	-0.35944584
26	0x3e0d0a6f	0.13773511
27	0x3ee956a3	0.4557391
28	0x3ee9015b	0.45508847
29	0x3eadb734	0.33928835
30	0xbd8b48dc	-0.06801006
31	0xbe4fd283	-0.20295148
32	0x3debf70b	0.11521729
33	0x3eb7e433	0.3591629
34	0xbeb5022e	-0.35353225
35	0x3ef246ef	0.47319743
36	0x3d0133d3	0.031543564
37	0xbebb42c7	-0.36574385
38	0x3e917c36	0.28415078
39	0xbeb3a308	-0.3508532
40	0xbb6b35c0	-0.0035890192
41	0x3db18bd1	0.08669246
42	0x3f0047e3	0.5010969
43	0x3e859b5f	0.260951
44	0x3d9c3cff	0.076288216
45	0x3eae1f8a	0.34008437
46	0xbda14f37	-0.07876437
47	0xbe466983	-0.19376187
48	0x3ee4933a	0.44643575
49	0xbe1ae001	-0.15124513
50	0xbe6a00ef	-0.22851919
51	0xbd84df12	-0.0648786
52	0xbe75b96a	-0.23996511
53	0x3cce0e42	0.025153283
54	0x3e648e7e	0.22319981
55	0x3ed65bcb	0.41866907
56	0x3e89f42a	0.26944095
57	0x3e184517	0.14870106
58	0xbea464f8	-0.32108283
59	0xbdf94db0	-0.12173021
60	0x3d53b6fc	0.05168818
61	0xbea9cd0d	-0.33164254
62	0xbaf96fe4	-0.0019030538
63	0x3d0fa745	0.03507163
64	0x3dd3dc7b	0.10344788
65	0x3dde3803	0.10850527
66	0x3df4f397	0.119605236
67	0x3da5d707	0.08097654
68	0x3ec0752a	0.3758939
69	0x3e528dd9	0.20561923
70	0xbe9edfd5	-0.31030145
71	0xbe65f2ff	-0.22455977
72	0x3e84b413	0.25918636
73	0xbe064937	-0.13113867
74	0xbe8bd60e	-0.27311748
75	0x3e330dc9	0.17485727
76	0xbe703aa8	-0.23459876
77	0x3d42526c	0.047441885
78	0x3f037721	0.5135365
79	0x3ecb8cd9	0.39755896
80	0xbec54ad3	-0.3853365
81	0x3df3f603	0.119121574
82	0x3dd4f811	0.103988774
83	0x3e046995	0.12930901
84	0x3ddb2810	0.10701001
85	0x3ea861e5	0.32887188
86	0x3eaaa6a8	0.33330274
87	0xbd333271	-0.043749277
88	0x3e885892	0.26630074
89	0xbe4f2f8f	-0.20232986
90	0xbe90af20	-0.2825861
91	0xbdfbc136	-0.122927114
92	0xbe91ffc8	-0.28515458
93	0xbe37d994	-0.17954093
94	0x3ed0237d	0.40652075
95	0xbe946793	-0.2898527
96	0x3e8ba181	0.27271655
97	0xbe6dcfb9	-0.23223771
98	0x3e81c056	0.25342053
99	0xbef9bda4	-0.48777497
100	0x3e9efe4d	0.3105339
101	0xbd55cb18	-0.05219564
102	0x3e0c9073	0.13726978
103	0x3ec20288	0.37892556
104	0xbe8f5665	-0.279956
105	0x3e891249	0.26771763
106	0x3d15b9ec	0.036554262
107	0xbe164276	-0.1467379
108	0xbec05694	-0.37566054
109	0xbc1deaec	-0.009638529
110	0xbead15fd	-0.33805838
111	0xbed435f6	-0.4144742
112	0x3de8d5eb	0.113689266
113	0xbe5a7932	-0.21335295
114	0x3e741d52	0.2383931
115	0xbe7ea085	-0.24865921
116	0xbed09911	-0.4074178
117	0x3d387f5e	0.04504334
118	0x3e878646	0.2646963
119	0x3eb71a7d	0.35762396
120	0xbe89fc3a	-0.26950246
121	0x3e6008c4	0.21878344
122	0x3e2d59e7	0.16928826
123	0xbe841196	-0.25794667
124	0x3c881c59	0.01661508
125	0x3ed5e706	0.4177782
126	0xbe207fdc	-0.15673774
127	0xbe6c219b	-0.23059694
128	0xbf0df5ee	-0.55453384
129	0x3d5b20ed	0.053498197
130	0xbe31d765	-0.17367323
131	0x3e80b03c	0.25134456
132	0xbef3170f	-0.4747853
133	0xbdc991e7	-0.09842282
134	0x3ee48455	0.4463221
135	0xbe843ac2	-0.2582608
136	0x3eecc61d	0.46244898
137	0x3e310490	0.17286897
138	0xbe851a3e	-0.25996584
139	0x3e9c309d	0.3050584
140	0xbd5df45c	-0.054188117
141	0xbeb7011b	-0.3574303
142	0x3df5c942	0.120012775
143	0x3e5e437b	0.2170543
144	0xbd87b8e3	-0.06627061
145	0xbed70cbe	-0.4200191
146	0x3e8f9fb7	0.2805154
147	0x3e1cd7e4	0.1531673
148	0xbe2ea346	-0.17054471
149	0x3eac3ae6	0.33638686
150	0xbeb96521	-0.36209968
151	0xbdc34e55	-0.09536425
152	0x3ef35a50	0.4752984
153	0x3ec8c047	0.39209196
154	0xbe28eb25	-0.1649595
155	0x3e9c85b5	0.3057076
156	0xbed36037	-0.41284344
157	0xbe8b1200	-0.2716217
158	0x3e011e1a	0.12609139
159	0xbe2631a0	-0.16229868
